static/assets/source_agent/chkpt.pt (torch, 20265 bytes, 18 tensors)

fc1.weight f4 [20, 43]
00000000: 355d 55c1 7ae0 5441 e755 46c1 d597 4041
00000010: 65c1 4d41 8268 5d41 6811 6041 583c cfbe
00000020: e0d9 58c1 6a64 56c1 f660 59c1 7a14 54c1
00000030: f028 59c1 5a04 55c1 d8cd 5ac1 7a66 54c1
00000040: 52c1 91bd f105 c1bd 1e61 813d 009c bd39
00000050: fcd2 0b3d f1be 56c1 bcea 56c1 5ce3 ed3d
00000060: bc67 bc3d e081 32bc b409 d93d e841 563d
00000070: 364f 5bc1 cfbf 59c1 c0c7 433c a0b8 133c
00000080: f0fb 9bbc 9216 c53d c05d 6e3b 5753 56c1
00000090: 43cb 5ac1 d05f 5ac1 a136 57c1 24c3 58c1
000000a0: fc2a 54c1 4ecf 53c1 80fa 57c1 4d7d 5dc1
000000b0: f6f5 61c1 fd81 6441 aa08 68c1 7926 5cc1
000000c0: c3ca 59c1 ab43 57c1 3176 57c1 bb74 62c1
000000d0: 6cf1 5fc1 ac1e 5bc1 a924 5fc1 cb50 62c1
000000e0: 6f31 5ac1 48bd 62c1 c968 5ec1 c076 a1bc
000000f0: 80d1 c93d ba5a 0abe 447c e83d fae5 0fbd
00000100: 09b3 60c1 68ac 5cc1 d2be 9e3d 30e2 05bc
00000110: 3267 b33d fc74 7ebd 727f 1ebd 9f0f 5cc1
00000120: 5d31 5ec1 b0fd 263c c48c ab3d 0748 d5bd
00000130: 54cc 4c3d d8a0 ef3d 6684 59c1 a930 5fc1
00000140: ac30 5ec1 893e 60c1 a664 60c1 6992 5fc1
00000150: c75e 5b41 abff 5fc1 007c 9140 7202 f9c0
00000160: 221b 6d41 a187 5541 845a 7abf eebc 79bf
00000170: 7dd2 1440 a8da 64be aa6c 1a40 4dd1 96be
00000180: 8c8a b93f e600 163f 8c0d d93f 907b 873f
00000190: 3a7c 1740 c069 32bf 6a76 9c3d 1c96 0d3e
000001a0: 38aa 8dbc a2aa 38bd c006 363c ba21 863f
000001b0: 5b35 69bd a820 843d 0a0c eabd 0074 acbb
000001c0: c363 f7bd 26de 183e 475b 0040 599c 0d40
000001d0: decf a83d b8d1 c93d ea2d 113e f85d 3f3d
000001e0: bc6b 6b3d a18d 2fc0 70fe 1640 ae92 0040
000001f0: bf98 8b3f d7a5 0240 abf6 1ebf 0071 a53d
00000200: 15cf 2140 e425 6abe 2206 febe 0107 5dbe
00000210: 890d e3be e636 6fbe 55f1 c9be 50c9 f3be
00000220: c27f 93be 97fd e2be a573 aabe 1a0b 8dbe
00000230: 1fe4 8abe cee7 e6be f81c e8be c293 8abe
00000240: f8bc c2be c924 b9bd 1c3e 063d 4c8a 52bd
00000250: 70c6 0dbe 2804 253d 5a5c f5be 3e40 82be
00000260: 40c4 adbb 4839 00be e760 b3bd fc33 9b3d
00000270: af6f f0bd cd25 c9be 8959 89be 007a 2d3d
00000280: e8b3 7b3d ee22 15bd 2005 4abd c097 5cbc
00000290: 3428 00bf 13a7 c7be c48b c3be 62d1 bfbe
000002a0: 3166 9bbe 3a78 50be 42d1 69be 6e69 e8be
000002b0: 8427 cfbe f992 d5be c922 8a3e d0a5 c8be
000002c0: 8562 a8be 3704 8dbe 5d51 9cbe 0b54 87be
000002d0: 7272 bfbe 2913 00bf e157 8abe 2f34 88be
000002e0: 4a1a ffbe 82d4 d5be 301c e3be 984f e0be
000002f0: 5eb7 c6bd e0b1 f63d 3041 2dbc 8e9c bf3d
00000300: 7cd8 f03d 847f 92be a73d b7be be68 4cbd
00000310: 4845 dc3d 8d68 0bbe d0cc ebbc 5c93 0c3e
00000320: 8c21 5ebe a15b 97be 5094 21bc 165d 0b3e
00000330: f086 b53d e807 f8bd dd10 c9bd 5ece 5abe
00000340: a4bd a3be 7df1 01bf f330 f7be 0af5 f2be
00000350: 8993 00bf 335f b4be c6ad 01bf ef44 d4be
00000360: 0db2 bebe 50c9 9e3e 1a3b ad3d 1276 8fbe
00000370: 6f07 83be 93c3 77be 6439 e3bd 56e0 89be
00000380: bb4d d6be 8ee7 68be 3416 ddbe b392 53be
00000390: b64a f5be 2a20 a6be 32f8 bcbe 80ed 20bc
000003a0: bc86 f33d fce1 e93d 6222 083e c87c f73c
000003b0: c350 f2be 477e aebe d642 bc3d 30c9 1e3d
000003c0: 78fe d9bd 3802 6b3d a050 7e3c 6a08 debe
000003d0: d314 53be ac90 f3bd 4cdd 2abd 9641 c53d
000003e0: 3038 94bc 81c4 a5bd 46d1 6cbe 9e2d f5be
000003f0: 2bf9 cdbe 520b d3be 3cdf f8be 8610 e0be
-13.335256 13.304804 -12.395972 12.037068 12.859715 13.838015 14.00425 -0.40475726
-13.553192 -13.399515 -13.586172 -13.254999 -13.5724945 -13.313562 -13.675255 -13.275019
-0.07116951 -0.09424961 0.06317352 0.00036165118 0.034136757 -13.421617 -13.432308 0.11615631
0.09199473 -0.010895222 0.10597554 0.052308947 -13.706839 -13.609328 0.01194948 0.009016186
-0.019041032 0.096234456 0.0036371797 -13.395347 -13.674624 -13.648392 -13.450837 -13.547642
-13.260494 -13.2381115 -13.498657 -13.843091 -14.122549 14.281735 -14.502115 -13.759393
-13.612002 -13.4540205 -13.466355 -14.153499 -13.996441 -13.694988 -13.94645 -14.144725
-13.637069 -14.171211 -13.900582 -0.019709945 0.09854412 -0.13511172 0.11351827 -0.035131432
-14.04371 -13.792091 0.0775124 -0.008171603 0.08759917 -0.062123284 -0.03869576 -13.753814
-13.887052 0.01019232 0.08376458 -0.10414129 0.04999955 0.117006004 -13.594824 -13.94938
-13.886883 -14.015267 -14.024572 -13.973245 13.710639 -13.999919 4.5463867 -7.7815485
14.819124 13.345613 -0.97794366 -0.9755391 2.3253472 -0.22349036 2.4128823 -0.2945656
1.4495406 0.5859512 1.6957259 1.0584583 2.3669572 -0.6969261 0.07639773 0.13826793
-0.01729308 -0.045084603 0.011110008 1.0479043 -0.05693565 0.06451541 -0.114280775 -0.0052628517
-0.12079575 0.14928493 2.0055711 2.2126677 0.082427725 0.09854454 0.14177671 0.046720475
0.05747579 -2.7430193 2.3592796 2.0089526 1.090599 2.041372 -0.62095135 0.08078194
2.5282643 -0.22866017 -0.49614054 -0.21584703 -0.44346264 -0.23360786 -0.39441934 -0.47614527
-0.2880841 -0.443341 -0.33291355 -0.27547532 -0.27127168 -0.45098728 -0.453346 -0.27065855
-0.38034797 -0.09040219 0.032774076 -0.05140142 -0.13845229 0.040287167 -0.4792202 -0.25439638
-0.005302936 -0.12521851 -0.08758717 0.075782746 -0.11740052 -0.39286652 -0.26826122 0.042352676
0.06145087 -0.036410265 -0.049321294 -0.013463914 -0.50061345 -0.38994655 -0.3819257 -0.37464434
-0.30351403 -0.20358363 -0.22833732 -0.45392936 -0.40459836 -0.41713694 0.26979664 -0.39189005
-0.32887664 -0.27542278 -0.30530825 -0.26431307 -0.37392002 -0.50029236 -0.2702017 -0.26602313
-0.49824744 -0.41763693 -0.44357443 -0.43810725 -0.09702943 0.12045646 -0.010574624 0.09356032
0.11760041 -0.28612912 -0.35789225 -0.049904577 0.10755402 -0.13614102 -0.028784186 0.13728088
-0.21692485 -0.29562095 -0.009862021 0.13609728 0.08863628 -0.12110883 -0.098176695 -0.21367785
-0.31980622 -0.50759107 -0.48279533 -0.47452575 -0.5022512 -0.3522888 -0.5065578 -0.41458842
-0.37245217 0.31012964 0.08458538 -0.28019768 -0.2559161 -0.241957 -0.11094931 -0.26928967
-0.4185618 -0.22744581 -0.43181002 -0.2066143 -0.47908562 -0.32446414 -0.36908108 -0.009822249
0.11890933 0.11420056 0.13294366 0.030210868 -0.4732724 -0.34080717 0.091924354 0.038766086
-0.10644239 0.057375163 0.015522152 -0.43365794 -0.20613413 -0.11892828 -0.04171495 0.0963165
-0.018093199 -0.08094121 -0.23126706 -0.47886366 -0.40229163 -0.41219574 -0.48607814 -0.43762606

fc1.bias f4 [20]
00000000: b389 57c1 3326 5ec1 5337 1b40 a62a 55be
00000010: 8c2d 69be e257 babe 029b e0be 5821 53c1
00000020: f0d7 abbe 8f07 4ebe 3dc8 0c40 ad55 3ec1
00000030: c4ae c23e 0c3a c0be 5e9a 57c1 c381 ccbe
00000040: 01b4 3e40 6e55 fbbe 4904 f0be 2247 02c1
-13.471118 -13.884326 2.4252517 -0.2081705 -0.22771281 -0.36395174 -0.43868262 -13.195641
-0.33563185 -0.20120071 2.1997216 -11.895917 0.3802396 -0.37544286 -13.475187 -0.3994275
2.9797366 -0.49088615 -0.4687827 -8.142366

fc2.weight f4 [10, 20]
00000000: 44ce 7cbe 4523 8dbe 97ce f6be c10b 39be
00000010: f5a3 e0be 6c73 e3be 7519 2bbe b8d7 95be
00000020: b5f3 a6be 14e9 73be 51e5 89be 1abf 82be
00000030: 61e3 c6be 1aa3 b1be a2d2 14bf d35b 91be
00000040: fe8c cebe 9094 ddbe 6e6d 0bbe d72f 80be
00000050: 4e61 5641 12ab 6041 fb8b 99c0 3ef2 de3e
00000060: bf72 073f cc55 26be 661d c33e c3b8 5841
00000070: 9bf2 923e 7576 c33e 88be 32c1 99d2 5dc1
00000080: b060 5fc1 70d5 b03e 0589 5841 2cb5 103e
00000090: eaac 62c1 b62d 2c3e c032 953d 1c1e 3ac1
000000a0: 1bc4 4cc1 6df7 6241 0471 ae3f b094 053f
000000b0: f43d 9a3e a432 aa3d 3f8a 613b 6bee 98bf
000000c0: f973 e0be 3318 80be 576a 9fbd 073b 38c1
000000d0: 7993 18bf 3838 4b3e db5a 34c1 744a ce3e
000000e0: 1ece 02bf 802e f73e e1b0 6cbe cbfc c0bf
000000f0: 87d8 48c1 30e0 57c1 1c6c 4abf 026b f83e
00000100: 2072 573e 7c6d 5f3e 3ee3 ad3e f805 4ec1
00000110: 82bd babe 7be6 a23e 42fe 16bf 5df4 f640
00000120: 2859 fa3d 0cff 23bd 0c7b 5a41 e840 973e
00000130: 13a1 963f a067 133f e4ba 7dbe 363c 0dc1
00000140: c09a c2be 8455 aebe 17cf 12bf ccf4 5abe
00000150: 7618 54be 614a a5be 1049 1abe f5b8 04bf
00000160: 8aa6 7dbe d331 04be d7bf 54be 8562 b2be
00000170: 6f02 0dbf 370e 08bf 0291 e3be 95b0 bcbe
00000180: 46b8 6fbe 7da0 a0be 5fa0 04bf d5b5 94be
00000190: e464 e9be ce8f 84be 53e7 babe c831 35be
000001a0: 43ca b5be 9958 00be 938a 65be ff66 cfbe
000001b0: 0e93 bfbe baa9 e4be 096e 0abf 0e8f b4be
000001c0: 612c 34be c0fa 45be 4890 13bf 9685 dabe
000001d0: 841f e5be 7008 35be d184 eabe 3308 06be
000001e0: 6ca0 acbe 28da 5abe 79e8 9ebe 7a05 0abe
000001f0: 846c 30be 0cee 883d bc2e 04bf 5646 10bf
00000200: 42c0 e7be 343f 2abe aaac 2dbe fcc7 babe
00000210: 46ee a1be 4157 11be 2452 87be 365b 78be
00000220: 4cc9 01bf 4536 d1be 13cd 37be 462e 05bf
00000230: fd65 48c1 6300 5341 7ca3 52c1 d8cc ee3e
00000240: a6a9 103f dc55 e53d b63e af3e b778 54c1
00000250: 04ab 5a3e 24fc a33e ef77 57c1 8077 5dc1
00000260: 802f 5ec1 1b0d 223e 05bd 5641 234f 113f
00000270: 84e1 5ec1 1cac 793e c6b7 233e 4909 81c0
00000280: 4234 5141 bfd8 5541 ddaa 55c1 5465 abbe
00000290: c42f c6be e2aa aebe 7003 02bf f9b2 53c1
000002a0: bb3c 10bf 3431 923e eec2 13c1 f669 a6c0
000002b0: b1ad 0941 8982 a5be f568 5841 5461 e8be
000002c0: 22b1 1540 b990 35be cfa6 d83e 200f 67c1
000002d0: 3f2f 4ec1 3f61 52c1 cde5 cf3f 1a89 ba3e
000002e0: fdc4 803e 6471 b43e aa2a 613e b44b 5dc1
000002f0: e7c0 85be 9d78 b63e 7c92 9a3f 33ca 56c1
00000300: 1d16 d8bf 023e b5be 2ae5 5ec1 0a28 7c3e
00000310: 5462 2bc0 88d1 aa3e 58fc 0abf f190 2440
-0.24688059 -0.2756597 -0.4820449 -0.1807089 -0.4387509 -0.44423997 -0.1670893 -0.29266143
-0.3260781 -0.23819381 -0.26932767 -0.25536424 -0.3884535 -0.3469475 -0.581339 -0.2839037
-0.40341944 -0.43277407 -0.13615963 -0.250365 13.398756 14.041765 -4.7983375 0.4354419
0.52909464 -0.16243666 0.38108367 13.545108 0.28700718 0.38176313 -11.171516 -13.863915
-13.961105 0.3453784 13.533452 0.14131612 -14.167215 0.16814312 0.072850704 -11.632351
-12.797877 14.185407 1.362824 0.52180004 0.3012539 0.0831044 0.0034414676 -1.1947759
-0.4383848 -0.25018463 -0.077839546 -11.514411 -0.59600025 0.19845665 -11.2721815 0.40291178
-0.5109576 0.48277664 -0.23114349 -1.5077146 -12.552863 -13.492233 -0.7907121 0.4851914
0.21039629 0.21819109 0.33962435 -12.876457 -0.36472708 0.31816468 -0.58981717 7.7173295
0.122240365 -0.040038154 13.655041 0.29541707 1.1767906 0.57579994 -0.24778324 -8.8272
-0.3800869 -0.34049618 -0.57347244 -0.21382445 -0.20712456 -0.3228331 -0.15066934 -0.5184472
-0.24770561 -0.12909631 -0.20776306 -0.3484079 -0.5508184 -0.5314669 -0.4444657 -0.3685347
-0.23410138 -0.31372443 -0.51807207 -0.29044977 -0.45584786 -0.25890964 -0.3650461 -0.17694771
-0.35505876 -0.12533797 -0.22416143 -0.40508267 -0.3741688 -0.4466074 -0.5407415 -0.35265392
-0.17595054 -0.19333935 -0.5764203 -0.42680043 -0.44750607 -0.17679 -0.45804456 -0.13089065
-0.33716142 -0.21372283 -0.31036738 -0.13478652 -0.17228895 0.06686029 -0.5163381 -0.56357324
-0.4526387 -0.16625673 -0.16960397 -0.364807 -0.316271 -0.14193441 -0.26429856 -0.24253544
-0.5069778 -0.40861717 -0.17949323 -0.5202373 -12.5248995 13.187594 -13.164913 0.46640658
0.5650886 0.11198017 0.34227532 -13.279471 0.213543 0.32028306 -13.466781 -13.841675
-13.886597 0.15825312 13.421147 0.5676138 -13.930058 0.24382061 0.15988073 -4.0323834
13.075258 13.365417 -13.354215 -0.33475745 -0.38708317 -0.34114748 -0.50786495 -13.2311945
-0.5634267 0.28553164 -9.23509 -5.2004347 8.604905 -0.32326153 13.525624 -0.45386755
2.3389363 -0.17730989 0.42314765 -14.441193 -12.886535 -13.148742 1.6242005 0.36432725
0.2515029 0.3524276 0.21988931 -13.830982 -0.26123735 0.35638896 1.2075953 -13.424365
-1.6881748 -0.3539887 -13.930948 0.24624649 -2.6778765 0.33362985 -0.54291296 2.5713465

fc2.bias f4 [10]
00000000: 8e6b c7be dde8 f1c0 b605 48c1 71f0 03c1
00000010: 82e1 69be 62bb 92be cca0 a1be 4409 56c1
00000020: 6b6c 4cc1 7d02 4ac1
-0.38949245 -7.5596757 -12.501394 -8.2462015 -0.2283993 -0.28658587 -0.3156799 -13.377262
-12.776469 -12.6256075

fc3.weight f4 [8, 10]
00000000: 0fa0 a93e 3001 2d41 86b8 ea3f a791 3840
00000010: 1e6b b13d 40c9 e53d a260 aa3d 17f9 57c1
00000020: d220 1541 38b2 d240 ec39 81be b4d1 e640
00000030: 338b a83f 9820 1a40 692e 9dbd 32a8 cebe
00000040: fdb7 09bf e1da 5b41 d949 1141 0212 cf40
00000050: 581a 52be c7ed 2e41 78cb 1540 c94e 3b40
00000060: 7e56 2fbf 6acc 8dbe e456 cfbe 2d4c 5b41
00000070: 4f0a 50c1 c412 8a3f 4ca1 e03d 9a0e 3d41
00000080: 137b 1f40 adc3 5cc1 6af1 82be 7a68 8d3e
00000090: 6d21 e1be c543 55c1 c421 69c1 6b9a d640
000000a0: f22e 073e e0ce 63c1 de38 5bc1 2038 7540
000000b0: a5eb 0ebf b7a8 943e 2e28 21be 0432 5741
000000c0: 7146 1641 bae1 0dc1 7d63 a9be f4e4 30c1
000000d0: 23f2 c83f cc5c 3640 bd02 1cbe b800 70be
000000e0: 753c 7fbe e0a6 59c1 b9b9 0341 6fa9 39c1
000000f0: 6625 46be 2cfd 23c1 5689 e43f bd69 8cbf
00000100: f279 14bf 4722 83bd 65d6 cabd 211a 59c1
00000110: c9b1 1a41 f5bc a53f 000c 8cbe 375e 61c1
00000120: 8fa0 69c1 eb3f 63c1 f783 aebe 0c04 5bbd
00000130: d3e2 91be 702a 64c1 e0b9 65c1 421f 61c1
0.33129928 10.81279 1.8337562 2.88389 0.08663009 0.11220026 0.083192125 -13.498313
9.320513 6.584255 -0.25239503 7.2130985 1.316748 2.4082394 -0.07674868 -0.40362698
-0.5379637 13.740937 9.080529 6.470948 -0.20517862 10.933051 2.3405437 2.9266837
-0.6849135 -0.27695018 -0.4049598 13.706098 -13.002517 1.0786977 0.10968265 11.816065
2.4918869 -13.797772 -0.2557481 0.27618772 -0.43970814 -13.329045 -14.570744 6.70635
0.13201502 -14.238007 -13.701384 3.8315506 -0.55828315 0.2903497 -0.15737984 13.449711
9.392198 -8.867609 -0.33083716 -11.055897 1.5698894 2.8494139 -0.1523542 -0.23437774
-0.24925406 -13.603241 8.232842 -11.603866 -0.19350204 -10.24931 1.7854412 -1.0969769
-0.57998574 -0.06403022 -0.09904174 -13.568879 9.668405 1.294829 -0.27352905 -14.085502
-14.601699 -14.203105 -0.34085056 -0.053470656 -0.28493366 -14.260361 -14.35788 -14.070131

fc3.bias f4 [8]
00000000: 04c3 1541 a0fb 3141 12bf 3840 5d1f 2bc1
00000010: f10d 58c1 7898 0141 8fb1 0041 677b 60c1
9.360111 11.123932 2.886662 -10.695157 -13.503404 8.099724 8.043349 -14.030128

exp_avg f4 [20, 43]
00000000: fa00 8c3f 6ad4 7ebd 1a8f b23d ff39 51ba
00000010: 7072 58bc 4a58 75be 22e4 f0be 0400 0000
00000020: 8a31 b43d 8a31 b43d 8a31 b43d 8a31 b43d
00000030: 8a31 b43d 8a31 b43d 8a31 b43d 2a25 073f
00000040: 0000 0000 0000 0000 0000 0000 0000 0000
00000050: 0000 0000 8a31 b43d 8a31 b43d 0000 0000
00000060: 0000 0000 0000 0000 0000 0000 0000 0000
00000070: 8a31 343e 2a25 873e 0000 0000 0000 0000
00000080: 0000 0000 0000 0000 0000 0000 8a31 b43d
00000090: 8a31 b43d 8a31 b43d 8a31 b43e eb3d e13e
000000a0: 8a31 b43d 8a31 b43d 8a31 b43d f8b9 3a41
000000b0: 882d dd40 4275 bdc1 f4d9 b040 6685 5941
000000c0: 5bb4 ac40 6aee 5a40 9ea6 d041 fa39 5740
000000d0: 986a bf40 6116 3840 6e47 5340 ba9e fd40
000000e0: 8e9c e53f fa39 5740 79b9 2741 0000 0000
000000f0: 0000 0000 0000 0000 0000 0000 0000 0000
00000100: c4a3 aa41 ec69 d33f 0000 0000 0000 0000
00000110: 0000 0000 0000 0000 0000 0000 f500 b23f
00000120: dfef ab41 0000 0000 0000 0000 0000 0000
00000130: 0000 0000 0000 0000 7571 a840 fa39 5740
00000140: aee0 cc40 114e 0d41 95ca a740 8d9e 9040
00000150: 3614 37c0 fa39 5740 e608 39c2 7ff9 8740
00000160: d6a3 a2c4 d9e6 cbc3 e5d6 5bc1 a6b8 e6c0
00000170: e43d 08c2 b940 1341 324b 4fc1 e5e5 f0c1
00000180: 2324 f1c0 d0b8 f4c1 737f 83c1 4748 ccc0
00000190: 324b 4fc1 88d0 55c2 0000 0000 0000 0000
000001a0: 0000 0000 0000 0000 0000 0000 721f d3c1
000001b0: 9a31 d8c1 0000 0000 0000 0000 0000 0000
000001c0: 0000 0000 0000 0000 365d 3ac2 d87c 28c2
000001d0: 0000 0000 0000 0000 0000 0000 0000 0000
000001e0: 0000 0000 94b2 8dc1 324b 4fc1 2cc4 43c1
000001f0: 5993 09c2 7286 2dc2 6260 85c1 2a31 eb3f
00000200: 324b 4fc1 0400 0000 0400 0000 0400 0000
00000210: 0400 0000 0400 0000 0400 0000 0400 0000
00000220: 0400 0000 0400 0000 0400 0000 0400 0000
00000230: 0400 0000 0400 0000 0400 0000 0400 0000
00000240: 0400 0000 0000 0000 0000 0000 0000 0000
00000250: 0000 0000 0000 0000 0400 0000 0400 0000
00000260: 0000 0000 0000 0000 0000 0000 0000 0000
00000270: 0000 0000 0400 0000 0400 0000 0000 0000
00000280: 0000 0000 0000 0000 0000 0000 0000 0000
00000290: 0400 0000 0400 0000 0400 0000 0400 0000
000002a0: 0400 0000 0400 0000 0400 0000 0400 0000
000002b0: 0400 0000 0400 0000 0400 0080 0400 0000
000002c0: 0400 0000 0400 0000 0400 0000 0400 0000
000002d0: 0400 0000 0400 0000 0400 0000 0400 0000
000002e0: 0400 0000 0400 0000 0400 0000 0400 0000
000002f0: 0000 0000 0000 0000 0000 0000 0000 0000
00000300: 0000 0000 0400 0000 0400 0000 0000 0000
00000310: 0000 0000 0000 0000 0000 0000 0000 0000
00000320: 0400 0000 0400 0000 0000 0000 0000 0000
00000330: 0000 0000 0000 0000 0000 0000 0400 0000
00000340: 0400 0000 0400 0000 0400 0000 0400 0000
00000350: 0400 0000 0400 0000 0400 0000 0400 0000
00000360: 0400 0000 0400 0080 0000 0000 0400 0000
00000370: 0400 0000 0400 0000 0000 0000 0400 0000
00000380: 0400 0000 0400 0000 0400 0000 0400 0000
00000390: 0400 0000 0400 0000 0400 0000 0000 0000
000003a0: 0000 0000 0000 0000 0000 0000 0000 0000
000003b0: 0400 0000 0400 0000 0000 0000 0000 0000
000003c0: 0000 0000 0000 0000 0000 0000 0400 0000
000003d0: 0400 0000 0000 0000 0000 0000 0000 0000
000003e0: 0000 0000 0000 0000 0400 0000 0400 0000
000003f0: 0400 0000 0400 0000 0400 0000 0400 0000
1.0937798 -0.062214293 0.08718701 -0.00079813594 -0.013210878 -0.23959461 -0.47049052 6e-45
0.08798511 0.08798511 0.08798511 0.08798511 0.08798511 0.08798511 0.08798511 0.5279108
0.0 0.0 0.0 0.0 0.0 0.08798511 0.08798511 0.0
0.0 0.0 0.0 0.0 0.17597023 0.2639554 0.0 0.0
0.0 0.0 0.0 0.08798511 0.08798511 0.08798511 0.35194045 0.43992552
0.08798511 0.08798511 0.08798511 11.670403 6.911808 -23.682255 5.5266056 13.595068
5.397016 3.4208016 26.081356 3.3629136 5.981762 2.876366 3.3012347 7.925626
1.7938402 3.3629136 10.482781 0.0 0.0 0.0 0.0 0.0
21.329964 1.65167 0.0 0.0 0.0 0.0 0.0 1.3906542
21.492125 0.0 0.0 0.0 0.0 0.0 5.2638497 3.3629136
6.4024267 8.831559 5.2434793 4.5193543 -2.8606086 3.3629136 -46.25869 4.249206
-1301.1199 -407.8035 -13.7399645 -7.21004 -34.06044 9.203301 -12.955858 -30.112253
-7.535661 -30.59024 -16.437231 -6.383823 -12.955858 -53.453644 0.0 0.0
0.0 0.0 0.0 -26.390354 -27.02422 0.0 0.0 0.0
0.0 0.0 -46.591026 -42.121918 0.0 0.0 0.0 0.0
0.0 -17.712196 -12.955858 -12.235394 -34.393894 -43.381294 -16.672062 1.8374379
-12.955858 6e-45 6e-45 6e-45 6e-45 6e-45 6e-45 6e-45
6e-45 6e-45 6e-45 6e-45 6e-45 6e-45 6e-45 6e-45
6e-45 0.0 0.0 0.0 0.0 0.0 6e-45 6e-45
0.0 0.0 0.0 0.0 0.0 6e-45 6e-45 0.0
0.0 0.0 0.0 0.0 6e-45 6e-45 6e-45 6e-45
6e-45 6e-45 6e-45 6e-45 6e-45 6e-45 -6e-45 6e-45
6e-45 6e-45 6e-45 6e-45 6e-45 6e-45 6e-45 6e-45
6e-45 6e-45 6e-45 6e-45 0.0 0.0 0.0 0.0
0.0 6e-45 6e-45 0.0 0.0 0.0 0.0 0.0
6e-45 6e-45 0.0 0.0 0.0 0.0 0.0 6e-45
6e-45 6e-45 6e-45 6e-45 6e-45 6e-45 6e-45 6e-45
6e-45 -6e-45 0.0 6e-45 6e-45 6e-45 0.0 6e-45
6e-45 6e-45 6e-45 6e-45 6e-45 6e-45 6e-45 0.0
0.0 0.0 0.0 0.0 6e-45 6e-45 0.0 0.0
0.0 0.0 0.0 6e-45 6e-45 0.0 0.0 0.0
0.0 0.0 6e-45 6e-45 6e-45 6e-45 6e-45 6e-45

exp_avg_sq f4 [20, 43]
00000000: 9525 993f 4aac 7d3b 6618 f93b dc03 2b35
00000010: 3602 3739 0a26 6b3d 0bae 623e f401 0000
00000020: 4aac fd3b 4aac fd3b 4aac fd3b 4aac fd3b
00000030: 4aac fd3b 4aac fd3b 4aac fd3b c4b1 8e3e
00000040: 0000 0000 0000 0000 0000 0000 0000 0000
00000050: 0000 0000 4aac fd3b 4aac fd3b 0000 0000
00000060: 0000 0000 0000 0000 0000 0000 0000 0000
00000070: 4aac fd3c c4b1 8e3d 0000 0000 0000 0000
00000080: 0000 0000 0000 0000 0000 0000 4aac fd3b
00000090: 4aac fd3b 4aac fd3b 4aac fd3d fb30 463e
000000a0: 4aac fd3b 4aac fd3b 4aac fd3b af31 0843
000000b0: a614 3f42 0b35 0c44 725d f441 10d3 3843
000000c0: 2903 e941 5a38 3b41 c40d 2a44 ddf2 3441
000000d0: 251f 0f42 1b61 0441 405f 2e41 1943 7b42
000000e0: 49f5 4d40 ddf2 3441 7ec4 db42 0000 0000
000000f0: 0000 0000 0000 0000 0000 0000 0000 0000
00000100: 2c79 e343 d799 2e40 0000 0000 0000 0000
00000110: 0000 0000 0000 0000 0000 0000 dc8d f73f
00000120: cff3 e643 0000 0000 0000 0000 0000 0000
00000130: 0000 0000 0000 0000 c7ac dd41 ddf2 3441
00000140: 27f7 2342 28fc 9b42 5ef3 db41 b662 a341
00000150: eaf1 0241 ddf2 3441 f048 1145 ed73 a444
00000160: 4fd9 d049 d7c9 2648 cc92 dc43 a62c 0b42
00000170: 1fcc 6d44 19d0 d343 0fc1 6242 213a 0144
00000180: 443a 0d43 8a12 db43 8777 e042 4c5c ec42
00000190: 0fc1 6242 2495 5944 0000 0000 0000 0000
000001a0: 0000 0000 0000 0000 0000 0000 137f f143
000001b0: 7394 c343 0000 0000 0000 0000 0000 0000
000001c0: 0000 0000 0000 0000 6f51 3644 67c9 1044
000001d0: 0000 0000 0000 0000 0000 0000 0000 0000
000001e0: 0000 0000 b472 1543 0fc1 6242 157c f342
000001f0: 4e5f b143 d8d2 1344 b2ad 0543 3174 5843
00000200: 0fc1 6242 f401 0000 f401 0000 f401 0000
00000210: f401 0000 f401 0000 f401 0000 f401 0000
00000220: f401 0000 f401 0000 f401 0000 f401 0000
00000230: f401 0000 f401 0000 f401 0000 f401 0000
00000240: f401 0000 0000 0000 0000 0000 0000 0000
00000250: 0000 0000 0000 0000 f401 0000 f401 0000
00000260: 0000 0000 0000 0000 0000 0000 0000 0000
00000270: 0000 0000 f401 0000 f401 0000 0000 0000
00000280: 0000 0000 0000 0000 0000 0000 0000 0000
00000290: f401 0000 f401 0000 f401 0000 f401 0000
000002a0: f401 0000 f401 0000 f401 0000 f401 0000
000002b0: f401 0000 f401 0000 f401 0000 f401 0000
000002c0: f401 0000 f401 0000 f401 0000 f401 0000
000002d0: f401 0000 f401 0000 f401 0000 f401 0000
000002e0: f401 0000 f401 0000 f401 0000 f401 0000
000002f0: 0000 0000 0000 0000 0000 0000 0000 0000
00000300: 0000 0000 f401 0000 f401 0000 0000 0000
00000310: 0000 0000 0000 0000 0000 0000 0000 0000
00000320: f401 0000 f401 0000 0000 0000 0000 0000
00000330: 0000 0000 0000 0000 0000 0000 f401 0000
00000340: f401 0000 f401 0000 f401 0000 f401 0000
00000350: f401 0000 f401 0000 f401 0000 f401 0000
00000360: f401 0000 f401 0000 0000 0000 f401 0000
00000370: f401 0000 f401 0000 0000 0000 f401 0000
00000380: f401 0000 f401 0000 f401 0000 f401 0000
00000390: f401 0000 f401 0000 f401 0000 0000 0000
000003a0: 0000 0000 0000 0000 0000 0000 0000 0000
000003b0: f401 0000 f401 0000 0000 0000 0000 0000
000003c0: 0000 0000 0000 0000 0000 0000 f401 0000
000003d0: f401 0000 0000 0000 0000 0000 0000 0000
000003e0: 0000 0000 0000 0000 f401 0000 f401 0000
000003f0: f401 0000 f401 0000 f401 0000 f401 0000
1.1964594 0.0038707429 0.0076017855 6.370808e-07 0.00017453064 0.057409324 0.22136705 7e-43
0.0077414857 0.0077414857 0.0077414857 0.0077414857 0.0077414857 0.0077414857 0.0077414857 0.2787
0.0 0.0 0.0 0.0 0.0 0.0077414857 0.0077414857 0.0
0.0 0.0 0.0 0.0 0.030965943 0.069675 0.0 0.0
0.0 0.0 0.0 0.0077414857 0.0077414857 0.0077414857 0.12386377 0.19354622
0.0077414857 0.0077414857 0.0077414857 136.19408 47.770164 560.8288 30.545628 184.82446
29.126543 11.701258 680.2151 11.309293 35.780415 8.273707 10.898254 62.815525
3.218096 11.309293 109.88377 0.0 0.0 0.0 0.0 0.0
454.94666 2.7281396 0.0 0.0 0.0 0.0 0.0 1.9340167
461.90475 0.0 0.0 0.0 0.0 0.0 27.709364 11.309293
40.99136 77.99249 27.493832 20.423199 8.184061 11.309293 2324.5586 1315.6227
1.7108899e+06 170791.36 441.14685 34.793602 951.1894 423.62576 56.688534 516.90826
141.2276 438.14484 112.23345 118.18027 56.688534 870.3303 0.0 0.0
0.0 0.0 0.0 482.99277 391.15976 0.0 0.0 0.0
0.0 0.0 729.2724 579.1469 0.0 0.0 0.0 0.0
0.0 149.44806 56.688534 121.74235 354.74457 591.29443 133.6785 216.45387
56.688534 7e-43 7e-43 7e-43 7e-43 7e-43 7e-43 7e-43
7e-43 7e-43 7e-43 7e-43 7e-43 7e-43 7e-43 7e-43
7e-43 0.0 0.0 0.0 0.0 0.0 7e-43 7e-43
0.0 0.0 0.0 0.0 0.0 7e-43 7e-43 0.0
0.0 0.0 0.0 0.0 7e-43 7e-43 7e-43 7e-43
7e-43 7e-43 7e-43 7e-43 7e-43 7e-43 7e-43 7e-43
7e-43 7e-43 7e-43 7e-43 7e-43 7e-43 7e-43 7e-43
7e-43 7e-43 7e-43 7e-43 0.0 0.0 0.0 0.0
0.0 7e-43 7e-43 0.0 0.0 0.0 0.0 0.0
7e-43 7e-43 0.0 0.0 0.0 0.0 0.0 7e-43
7e-43 7e-43 7e-43 7e-43 7e-43 7e-43 7e-43 7e-43
7e-43 7e-43 0.0 7e-43 7e-43 7e-43 0.0 7e-43
7e-43 7e-43 7e-43 7e-43 7e-43 7e-43 7e-43 0.0
0.0 0.0 0.0 0.0 7e-43 7e-43 0.0 0.0
0.0 0.0 0.0 7e-43 7e-43 0.0 0.0 0.0
0.0 0.0 7e-43 7e-43 7e-43 7e-43 7e-43 7e-43

exp_avg f4 [20]
00000000: 8a31 b43d fa39 5740 1b4b 4fc1 0400 0000
00000010: 0400 0000 0400 0000 0400 0000 0a16 4841
00000020: 0400 0000 0400 0000 b87f 01c1 5d62 4d40
00000030: 2e45 f140 0400 0000 a23b 9740 0400 0000
00000040: e458 0941 0400 0000 0400 0000 006f b0bf
0.08798511 3.3629136 -12.955836 6e-45 6e-45 6e-45 6e-45 12.505381
6e-45 6e-45 -8.093681 3.2091286 7.539695 6e-45 4.7260294 6e-45
8.584202 6e-45 6e-45 -1.3783875

exp_avg_sq f4 [20]
00000000: 4aac fd3b ddf2 3441 fcc0 6242 f401 0000
00000010: f401 0000 f401 0000 f401 0000 b861 1c43
00000020: f401 0000 f401 0000 3f18 9441 30c6 2441
00000030: af0a 6941 f401 0000 d3ac b241 f401 0000
00000040: f47e 7842 f401 0000 f401 0000 7030 d140
0.0077414857 11.309293 56.68846 7e-43 7e-43 7e-43 7e-43 156.38171
7e-43 7e-43 18.511839 10.298386 14.565108 7e-43 22.334387 7e-43
62.123978 7e-43 7e-43 6.537163

exp_avg f4 [10, 20]
00000000: 0400 0000 0400 0000 0400 0000 0400 0000
00000010: 0400 0000 0400 0000 0400 0000 0400 0000
00000020: 0400 0000 0400 0000 0400 0000 0400 0000
00000030: 0400 0000 0400 0000 0400 0000 0400 0000
00000040: 0400 0000 0400 0000 0400 0000 0400 0000
00000050: 8721 80bc 9c7d e0c1 d8fc 1f42 0400 0080
00000060: 0400 0080 0000 0000 0400 0080 776c 9cc1
00000070: 0400 0080 0400 0080 053d 4341 3752 7942
00000080: f503 7842 0400 0080 b5e4 1fc2 0400 0080
00000090: 114b cc42 0400 0080 0000 0000 8ba8 c240
000000a0: 01f2 df3a 144d f5c0 c4d7 fac1 0400 0080
000000b0: 0400 0080 0000 0000 0400 0080 26fa a441
000000c0: 0400 0000 0400 0000 77bd 2ec2 ea52 0040
000000d0: 6bb1 fdc1 0400 0080 3697 1840 0400 0080
000000e0: f0cf 50c1 0400 0080 0400 0000 5bda 25c2
000000f0: 9310 963a f5c3 0f40 676e 2142 0400 0080
00000100: 0400 0080 0400 0080 0400 0080 0f25 8041
00000110: 0400 0000 0400 0080 3bc1 2e43 c4c7 d9c1
00000120: d21e d8c2 0400 0000 31aa 8dc1 0400 0080
00000130: 3824 5a43 0400 0080 0400 0000 9ed8 3741
00000140: 0400 0000 0400 0000 0400 0000 0400 0000
00000150: 0400 0000 0400 0000 0400 0000 0400 0000
00000160: 0400 0000 0400 0000 0400 0000 0400 0000
00000170: 0400 0000 0400 0000 0400 0000 0400 0000
00000180: 0400 0000 0400 0000 0400 0000 0400 0000
00000190: 0400 0000 0400 0000 0400 0000 0400 0000
000001a0: 0400 0000 0400 0000 0400 0000 0400 0000
000001b0: 0400 0000 0400 0000 0400 0000 0400 0000
000001c0: 0400 0000 0400 0000 0400 0000 0400 0000
000001d0: 0400 0000 0400 0000 0400 0000 0400 0000
000001e0: 0400 0000 0400 0000 0400 0000 0400 0000
000001f0: 0400 0000 0000 0000 0400 0000 0400 0000
00000200: 0400 0000 0400 0000 0400 0000 0400 0000
00000210: 0400 0000 0400 0000 0400 0000 0400 0000
00000220: 0400 0000 0400 0000 0400 0000 0400 0000
00000230: 6c53 673b b259 98bf 0373 9141 0400 0080
00000240: 0400 0080 0000 0000 0400 0080 d56c 6140
00000250: 0400 0080 0400 0080 5ee8 0b42 c053 8e41
00000260: b42f 7a42 0400 0080 6acd d3c0 0400 0080
00000270: 2631 8b41 0400 0080 0000 0000 6fb1 a03f
00000280: 1467 dbbd b9a1 0ec1 278f 2541 0400 0000
00000290: 0400 0000 0400 0000 0400 0000 5458 8041
000002a0: 0400 0000 0400 0080 3d9f 4842 ced8 b441
000002b0: bf89 c640 0400 0000 e56d a5c0 0400 0000
000002c0: bb48 8741 0400 0000 0400 0080 76e5 2542
000002d0: ac4f 673a 25d3 1141 0e4b 4e42 0400 0080
000002e0: 0400 0080 0400 0080 0400 0080 2175 e73f
000002f0: 0400 0000 0400 0080 8a83 c2c1 9b99 be40
00000300: 1c43 fdc1 0400 0000 70a5 0c41 0400 0080
00000310: 7468 e842 0400 0080 0400 0000 a1a6 71c2
6e-45 6e-45 6e-45 6e-45 6e-45 6e-45 6e-45 6e-45
6e-45 6e-45 6e-45 6e-45 6e-45 6e-45 6e-45 6e-45
6e-45 6e-45 6e-45 6e-45 -0.015640987 -28.061333 39.996918 -6e-45
-6e-45 0.0 -6e-45 -19.552961 -6e-45 -6e-45 12.202397 62.330288
62.003864 -6e-45 -39.973347 -6e-45 102.146614 -6e-45 0.0 6.083074
0.0017085673 -7.665659 -31.355354 -6e-45 -6e-45 0.0 -6e-45 20.622143
6e-45 6e-45 -43.685024 2.0050607 -31.71163 -6e-45 2.3842292 -6e-45
-13.050766 -6e-45 6e-45 -41.463238 0.0011449031 2.2463353 40.357815 -6e-45
-6e-45 -6e-45 -6e-45 16.018095 6e-45 -6e-45 174.7548 -27.222542
-108.060196 6e-45 -17.708101 -6e-45 218.14148 -6e-45 6e-45 11.490385
6e-45 6e-45 6e-45 6e-45 6e-45 6e-45 6e-45 6e-45
6e-45 6e-45 6e-45 6e-45 6e-45 6e-45 6e-45 6e-45
6e-45 6e-45 6e-45 6e-45 6e-45 6e-45 6e-45 6e-45
6e-45 6e-45 6e-45 6e-45 6e-45 6e-45 6e-45 6e-45
6e-45 6e-45 6e-45 6e-45 6e-45 6e-45 6e-45 6e-45
6e-45 6e-45 6e-45 6e-45 6e-45 0.0 6e-45 6e-45
6e-45 6e-45 6e-45 6e-45 6e-45 6e-45 6e-45 6e-45
6e-45 6e-45 6e-45 6e-45 0.0035297526 -1.1902373 18.181158 -6e-45
-6e-45 0.0 -6e-45 3.5222676 -6e-45 -6e-45 34.97692 17.790894
62.546585 -6e-45 -6.618825 -6e-45 17.398998 -6e-45 0.0 1.2554148
-0.1071302 -8.914483 10.347449 6e-45 6e-45 6e-45 6e-45 16.043129
6e-45 -6e-45 50.155506 22.605862 6.2043147 6e-45 -5.169665 6e-45
16.910513 6e-45 -6e-45 41.474083 0.0008823823 9.114049 51.573296 -6e-45
-6e-45 -6e-45 -6e-45 1.808262 6e-45 -6e-45 -24.314228 5.9562507
-31.657768 6e-45 8.79039 -6e-45 116.20401 -6e-45 6e-45 -60.412724

exp_avg_sq f4 [10, 20]
00000000: f401 0000 f401 0000 f401 0000 f401 0000
00000010: f401 0000 f401 0000 f401 0000 f401 0000
00000020: f401 0000 f401 0000 f401 0000 f401 0000
00000030: f401 0000 f401 0000 f401 0000 f401 0000
00000040: f401 0000 f401 0000 f401 0000 f401 0000
00000050: 5046 8039 22dd 4444 04fa c744 f401 0000
00000060: f401 0000 0000 0000 f401 0000 2e28 bf43
00000070: f401 0000 f401 0000 a1e7 1443 e8d2 7245
00000080: 8f46 7045 f401 0000 6cbf c744 f401 0000
00000090: f604 2346 f401 0000 0000 0000 1005 1442
000000a0: f1ea 4336 9a0e 6b42 bdea 9545 f401 0000
000000b0: f401 0000 0000 0000 f401 0000 3fa4 d443
000000c0: f401 0000 f401 0000 35ca b645 f8a7 8040
000000d0: 2b7c 7a44 f401 0000 f5e8 b540 f401 0000
000000e0: a719 a545 f401 0000 f401 0000 5ec8 5545
000000f0: 98f1 af35 6c7a a140 3557 a645 f401 0000
00000100: f401 0000 f401 0000 f401 0000 204e 8043
00000110: f401 0000 f401 0000 f9b6 c546 4048 3944
00000120: 0bb6 d246 f401 0000 49c7 9c43 f401 0000
00000130: fefe d246 f401 0000 f401 0000 a3f6 0543
00000140: f401 0000 f401 0000 f401 0000 f401 0000
00000150: f401 0000 f401 0000 f401 0000 f401 0000
00000160: f401 0000 f401 0000 f401 0000 f401 0000
00000170: f401 0000 f401 0000 f401 0000 f401 0000
00000180: f401 0000 f401 0000 f401 0000 f401 0000
00000190: f401 0000 f401 0000 f401 0000 f401 0000
000001a0: f401 0000 f401 0000 f401 0000 f401 0000
000001b0: f401 0000 f401 0000 f401 0000 f401 0000
000001c0: f401 0000 f401 0000 f401 0000 f401 0000
000001d0: f401 0000 f401 0000 f401 0000 f401 0000
000001e0: f401 0000 f401 0000 f401 0000 f401 0000
000001f0: f401 0000 0000 0000 f401 0000 f401 0000
00000200: f401 0000 f401 0000 f401 0000 f401 0000
00000210: f401 0000 f401 0000 f401 0000 f401 0000
00000220: f401 0000 f401 0000 f401 0000 f401 0000
00000230: 5c0a 5137 6d58 b53f 1847 a543 f401 0000
00000240: f401 0000 0000 0000 f401 0000 0383 4641
00000250: f401 0000 f401 0000 e5ee 9844 3242 9e43
00000260: 9b80 7445 f401 0000 e73d 2f42 f401 0000
00000270: 8c5c 9743 f401 0000 0000 0000 26bf c93f
00000280: 4a0b 3c3c faf1 9e42 2416 2742 f401 0000
00000290: f401 0000 f401 0000 f401 0000 b0b3 8043
000002a0: f401 0000 f401 0000 6d16 d044 0c81 ff43
000002b0: c39a 5b43 f401 0000 21cd d541 f401 0000
000002c0: b0d6 cd42 f401 0000 f401 0000 ba01 d744
000002d0: 8c02 5135 d921 a642 ff6f 1645 f401 0000
000002e0: f401 0000 f401 0000 f401 0000 dc48 5140
000002f0: f401 0000 f401 0000 e309 9644 8bea 0d42
00000300: 2f86 8c44 f401 0000 f68c 9a42 f401 0000
00000310: 3c14 4846 f401 0000 f401 0000 a008 4145
7e-43 7e-43 7e-43 7e-43 7e-43 7e-43 7e-43 7e-43
7e-43 7e-43 7e-43 7e-43 7e-43 7e-43 7e-43 7e-43
7e-43 7e-43 7e-43 7e-43 0.0002446645 787.4552 1599.813 7e-43
7e-43 0.0 7e-43 382.3139 7e-43 7e-43 148.9048 3885.1816
3844.41 7e-43 1597.9819 7e-43 10433.24 7e-43 0.0 37.004944
2.9194018e-06 58.76426 4797.3423 7e-43 7e-43 0.0 7e-43 425.28317
7e-43 7e-43 5849.276 4.020504 1001.9401 7e-43 5.684687 7e-43
5283.2065 7e-43 7e-43 3420.523 1.3108829e-06 5.046194 5322.901 7e-43
7e-43 7e-43 7e-43 256.61035 7e-43 7e-43 25307.486 741.1289
26971.021 7e-43 313.55692 7e-43 27007.496 7e-43 7e-43 133.96342
7e-43 7e-43 7e-43 7e-43 7e-43 7e-43 7e-43 7e-43
7e-43 7e-43 7e-43 7e-43 7e-43 7e-43 7e-43 7e-43
7e-43 7e-43 7e-43 7e-43 7e-43 7e-43 7e-43 7e-43
7e-43 7e-43 7e-43 7e-43 7e-43 7e-43 7e-43 7e-43
7e-43 7e-43 7e-43 7e-43 7e-43 7e-43 7e-43 7e-43
7e-43 7e-43 7e-43 7e-43 7e-43 0.0 7e-43 7e-43
7e-43 7e-43 7e-43 7e-43 7e-43 7e-43 7e-43 7e-43
7e-43 7e-43 7e-43 7e-43 1.2459783e-05 1.416761 330.55542 7e-43
7e-43 0.0 7e-43 12.406985 7e-43 7e-43 1223.4655 316.51715
3912.0378 7e-43 43.81045 7e-43 302.72302 7e-43 0.0 1.5761459
0.011477301 79.47261 41.77162 7e-43 7e-43 7e-43 7e-43 257.4038
7e-43 7e-43 1664.7008 511.00818 219.60454 7e-43 26.72516 7e-43
102.91931 7e-43 7e-43 1720.054 7.7862273e-07 83.06611 2406.9998 7e-43
7e-43 7e-43 7e-43 3.270072 7e-43 7e-43 1200.309 35.479046
1124.1932 7e-43 77.275314 7e-43 12805.059 7e-43 7e-43 3088.539

exp_avg f4 [10]
00000000: 0400 0000 d57e 6d41 b467 2842 2623 6d42
00000010: 0400 0000 0400 0000 0400 0000 81d1 2a40
00000020: 9007 0042 2cb0 5e42
6e-45 14.843465 42.101273 59.284325 6e-45 6e-45 6e-45 2.669037
32.007385 55.672043

exp_avg_sq f4 [10]
00000000: f401 0000 0555 5c43 dbcd ee44 61ca 3245
00000010: f401 0000 f401 0000 f401 0000 2df6 e340
00000020: 2c1a 7744 f234 3845
7e-43 220.3321 1910.433 2860.6487 7e-43 7e-43 7e-43 7.1238008
988.40894 2947.309

exp_avg f4 [8, 10]
00000000: 0400 0080 b6a7 b2c1 03b1 1642 316c 19c3
00000010: 0400 0080 0400 0080 0400 0080 c195 c241
00000020: 986e f7c2 76d2 27c3 0400 0000 31f6 9ebf
00000030: da40 ee41 7e51 2842 0400 0000 0400 0000
00000040: 0400 0000 48f1 b8c0 6608 fec0 c9e6 8741
00000050: 0400 0000 5ea4 84c1 b815 e0c1 b656 0cc2
00000060: 0400 0000 0400 0000 0400 0000 ed96 fec1
00000070: b175 b342 d4fd 8842 0400 0080 eb04 29c1
00000080: e9b5 78c2 58a9 0042 0400 0000 0400 0080
00000090: 0400 0000 6812 0541 487e 5142 741e b6c2
000000a0: 0400 0080 1e82 bd41 e451 0341 2e33 4b42
000000b0: 0400 0000 0400 0080 0400 0000 68ec bbc1
000000c0: f78b 5742 cec7 0d43 0400 0000 e8fe f640
000000d0: 1df0 20c1 38a2 98c0 0400 0000 0400 0000
000000e0: 0400 0000 13ef b940 e28e 6541 7b80 0242
000000f0: 0400 0000 6aa3 f340 9dba 0441 feac 3942
00000100: 0400 0000 0400 0000 0400 0000 7486 6841
00000110: 76d7 adc2 acf2 94c0 0400 0000 0123 3b41
00000120: 3c4c 8241 8376 ae41 0400 0000 0400 0000
00000130: 0400 0000 16c3 0141 669f 0341 f861 6840
-6e-45 -22.33189 37.672863 -153.42262 -6e-45 -6e-45 -6e-45 24.323122
-123.716 -167.82211 6e-45 -1.2418882 29.781666 42.079582 6e-45 6e-45
6e-45 -5.7794533 -7.938525 16.987688 6e-45 -16.580257 -28.010605 -35.08468
6e-45 6e-45 6e-45 -31.823694 89.729866 68.49576 -6e-45 -10.563701
-62.177647 32.165375 6e-45 -6e-45 6e-45 8.316994 52.37332 -91.05948
-6e-45 23.688534 8.207493 50.79998 6e-45 -6e-45 6e-45 -23.490433
53.886684 141.78049 6e-45 7.7186165 -10.058621 -4.769802 6e-45 6e-45
6e-45 5.810434 14.3473835 32.62547 6e-45 7.613698 8.29556 46.418938
6e-45 6e-45 6e-45 14.532825 -86.92082 -4.654623 6e-45 11.696046
16.287224 21.807867 6e-45 6e-45 6e-45 8.110128 8.226416 3.6309795

exp_avg_sq f4 [8, 10]
00000000: f401 0000 cf5a f943 acaa a345 50d0 8846
00000010: f401 0000 f401 0000 f401 0000 b8e9 1344
00000020: a172 c645 9cfe b746 f401 0000 c369 c53f
00000030: 189e e943 d786 9c44 f401 0000 f401 0000
00000040: f401 0000 849d 0542 d463 7341 3add 8d46
00000050: f401 0000 e775 8943 6658 3e45 2df1 d144
00000060: f401 0000 f401 0000 f401 0000 4a2f 7d44
00000070: 0999 fb45 e38e 9345 f401 0000 812f df42
00000080: 818f 5045 6b89 8144 f401 0000 f401 0000
00000090: f401 0000 605c 8a42 556d 2b45 e936 f145
000000a0: f401 0000 9348 0c44 50e3 8642 9556 f346
000000b0: f401 0000 f401 0000 f401 0000 e9f2 0944
000000c0: 40af 5545 980d 9d46 f401 0000 a64e 6e42
000000d0: 99bb 8444 6c0c e143 f401 0000 f401 0000
000000e0: f401 0000 ce08 0742 199f 5443 e410 8544
000000f0: f401 0000 30de 6742 1de8 0f44 7ecc 1345
00000100: f401 0000 f401 0000 f401 0000 2731 5343
00000110: fa6b c045 c499 9341 f401 0000 08ca 0843
00000120: 9c9f 8443 d5c9 ed43 f401 0000 f401 0000
00000130: f401 0000 438a 8342 ef56 8742 beee 5241
7e-43 498.70944 5237.334 17512.156 7e-43 7e-43 7e-43 591.65186
6350.3286 23551.305 7e-43 1.5422901 467.2351 1252.2137 7e-43 7e-43
7e-43 33.403824 15.211872 18158.613 7e-43 274.9211 3045.525 1679.5367
7e-43 7e-43 7e-43 1012.7389 8051.1294 4721.861 7e-43 111.59278
3336.969 1036.2943 7e-43 7e-43 7e-43 69.18042 2742.8333 7718.864
7e-43 561.134 67.44397 31147.291 7e-43 7e-43 7e-43 551.7955
3418.9531 20102.797 7e-43 59.576805 1061.8624 450.09705 7e-43 7e-43
7e-43 33.7586 212.62148 1064.5278 7e-43 57.96698 575.6268 2364.7808
7e-43 7e-43 7e-43 211.192 6157.497 18.45008 7e-43 136.78918
265.24695 475.5768 7e-43 7e-43 7e-43 65.77004 67.66979 13.183287

exp_avg f4 [8]
00000000: d21b c5c1 3b18 b041 8443 cdc2 08c2 9041
00000010: 46c0 9442 add1 77c2 c597 9041 f0a1 6242
-24.638584 22.011831 -102.63187 18.094742 74.375534 -61.95476 18.074106 56.658142

exp_avg_sq f4 [8]
00000000: 6e43 5843 8ca9 1d43 461a 2246 e645 c243
00000010: d5e0 9345 a27f 4445 266b 9743 fea1 4845
216.2634 157.6623 10374.568 388.54608 4732.104 3143.977 302.8371 3210.1245
