static/assets/source_agent/model.onnx (onnx, 5467 bytes, 6 tensors)

fc1.bias f4 [20]
-13.47202 -13.885228 2.3846483 -0.2081705 -0.22771281 -0.36395174 -0.43868262 -13.196543
-0.33563185 -0.20120071 1.8662318 -11.896819 0.22266755 -0.37544286 -13.4760895 -0.3994275
2.7760382 -0.49088615 -0.4687827 -8.51607
00000000: 658d 57c1 e529 5ec1 149e 1840 a62a 55be
00000010: 8c2d 69be e257 babe 029b e0be 0a25 53c1
00000020: f0d7 abbe 8f07 4ebe afe0 ee3f 5f59 3ec1
00000030: f602 643e 0c3a c0be 109e 57c1 c381 ccbe
00000040: 9caa 3140 6e55 fbbe 4904 f0be d341 08c1

fc2.bias f4 [10]
-0.38949245 -7.56058 -12.839501 -8.769177 -0.2283993 -0.28658587 -0.3156799 -13.378164
-12.855286 -13.56484
00000000: 8e6b c7be 45f0 f1c0 996e 4dc1 8d4e 0cc1
00000010: 82e1 69be 62bb 92be cca0 a1be f60c 56c1
00000020: 40af 4dc1 9609 59c1

fc3.bias f4 [8]
9.254605 10.616847 2.6382773 -9.503277 -12.590513 7.8624783 6.7113013 -14.03103
00000000: dd12 1441 9bde 2941 89d9 2840 6c0d 18c1
00000010: be72 49c1 6c99 fb40 fbc2 d640 197f 60c1

onnx::MatMul_18 f4 [43, 20]
-13.336158 -13.843993 4.325887 -0.22866017 -0.40459836 -0.41458842 -0.34349278 4.58501
-0.23807506 -0.34028748 8.745631 -3.6627285 3.4786274 -0.279913 13.617056 -0.48926255
10.334253 -0.21206635 -0.26364976 11.847654 13.305706 -14.123451 -7.999357 -0.49614054
-0.41713694 -0.37245217 -0.23649652 -4.6473002 -0.23540094 -0.49344513 -5.269309 13.007474
-12.967599 -0.38195357 -14.024688 -0.35966194 -7.565895 -0.33204874 -0.19738741 -13.907014
-12.396874 14.282638 15.254874 -0.21584703 0.26979664 0.31012964 0.3776037 14.456909
0.34697893 0.40051603 15.422219 -14.510706 -13.573119 -0.28355736 -14.427257 0.24638101
-15.191776 -0.4302435 -0.20640002 15.529445 12.037971 -14.503017 13.303924 -0.44346264
-0.39189005 0.08458538 -0.4465123 -13.569961 -0.4653591 -0.36999664 -14.991116 -7.7356257
-12.821253 0.3170395 -11.866974 -0.1576478 14.267923 0.35472745 0.4796506 -16.582735
12.860618 -13.760295 -1.1407925 -0.23360786 -0.32887664 -0.28019768 -0.39823732 -5.9846697
0.38342097 -0.35716173 -8.948706 -14.446245 1.9614453 -0.3292685 -12.9675255 -0.44699275
-4.7878594 -0.3773711 -0.4196166 6.06032 13.838917 -13.612905 -1.2840844 -0.39441934
-0.27542278 -0.2559161 -0.3686774 4.300342 -0.505392 0.36165386 -2.84465 -4.9722967
-5.3135505 -0.46632078 12.596326 -0.46398237 -0.39033952 -0.43166018 0.2754145 1.5753094
14.005152 -13.454923 1.3940153 -0.47614527 -0.30530825 -0.241957 -0.43460205 -12.212024
-0.310856 0.27597705 1.5712614 4.8762608 5.20628 -0.45670825 12.895518 -0.24012865
0.7660087 -0.2687583 0.30510128 13.17113 -0.40475726 -13.4672575 0.005683567 -0.2880841
-0.26431307 -0.11094931 -0.3870105 -13.969949 -0.43004718 -0.061507955 1.4818345 -13.64975
-6.4262443 -0.42115033 -13.421421 -0.35304493 0.633468 -0.26901713 -0.36407608 1.1686028
-13.554094 -14.154401 2.3722792 -0.443341 -0.37392002 -0.26928967 -0.40304542 -13.166576
-0.4545368 -0.30120748 2.0978918 -11.864334 0.008568208 -0.31573328 -13.351105 -0.26816887
2.714738 -0.3026138 -0.4843783 -8.434337 -13.400417 -13.997343 -0.38347366 -0.33291355
-0.50029236 -0.4185618 -0.2857648 -13.52187 -0.4986972 -0.22809227 -2.882577 -13.48206
-10.920478 -0.305372 -13.674874 -0.24312791 -1.0706838 -0.25140905 -0.19659925 8.061262
-13.587074 -13.69589 1.645254 -0.27547532 -0.2702017 -0.22744581 -0.32836202 6.9439354
-0.24401635 -0.33637106 3.777856 11.211696 -9.000061 -0.2942081 -13.425521 -0.38294905
1.6538577 -0.27014238 -0.4867333 -14.177398 -13.255901 -13.947352 0.46589506 -0.27127168
-0.26602313 -0.43181002 -0.22719768 -13.514307 -0.36451852 -0.19856223 -2.9697466 11.713395
-8.535659 -0.29826972 -13.7787895 -0.20727451 0.009581362 -0.42979422 -0.39020702 -2.493024
-13.573397 -14.145627 1.3902817 -0.45098728 -0.49824744 -0.2066143 -0.25740683 -7.683583
-0.46263313 -0.29977316 -2.1055243 -13.644084 3.5224533 -0.42049035 -11.362161 -0.24296199
00000000: e760 55c1 ff80 5dc1 ab6d 8a40 e425 6abe
00000010: 8427 cfbe ef44 d4be 49de afbe 67b8 9240
00000020: f3c9 73be 293a aebe 1bee 0b41 256a 6ac0
00000030: d5a1 5e40 c250 8fbe 76df 5941 9f80 fabe
00000040: 1a59 2541 ec27 59be 1afd 86be fe8f 3d41
00000050: 2ce4 5441 a8f9 61c1 bcfa ffc0 2206 febe
00000060: f992 d5be 0db2 bebe 252c 72be afb6 94c0
00000070: f20c 71be d7a4 fcbe 2e9e a8c0 9d1e 5041
00000080: 497b 4fc1 6b8f c3be 1f65 60c1 9c25 b8be
00000090: d01b f2c0 4b02 aabe ed1f 4abe 2183 5ec1
000000a0: 9959 46c1 af85 6441 f713 7441 0107 5dbe
000000b0: c922 8a3e 50c9 9e3e 4655 c13e 804f 6741
000000c0: 39a7 b13e 7010 cd3e 69c1 7641 da2b 68c1
000000d0: 7f2b 59c1 6e2e 91be 0bd6 66c1 4e4b 7c3e
000000e0: 8411 73c1 e048 dcbe 875a 53be 9b78 7841
000000f0: 879b 4041 5c0c 68c1 dfdc 5441 890d e3be
00000100: d0a5 c8be 1a3b ad3d 439d e4be 8f1e 59c1
00000110: 8c43 eebe 3370 bdbe 9cdb 6fc1 3f8a f7c0
00000120: da23 4dc1 0053 a23e 20df 3dc1 6d6e 21be
00000130: 6a49 6441 d69e b53e c394 f53e 71a9 84c1
00000140: 17c5 4d41 2b2a 5cc1 7d05 92bf e636 6fbe
00000150: 8562 a8be 1276 8fbe c3e5 cbbe 6a82 bfc0
00000160: c14f c43e e7dd b6be e62d 0fc1 d223 67c1
00000170: a410 fb3f e195 a8be fc7a 4fc1 3cdc e4be
00000180: 2536 99c0 c936 c1be fdd7 d6be 24ee c140
00000190: 346c 5d41 75ce 59c1 e15c a4bf 55f1 c9be
000001a0: 3704 8dbe 6f07 83be 49c3 bcbe 679c 8940
000001b0: 5f61 01bf b22a b93e bf0e 36c0 0e1d 9fc0
000001c0: 9b08 aac0 99c1 eebe 8d8a 4941 198f edbe
000001d0: 95da c7be 9002 ddbe 2103 8d3e bda3 c93f
000001e0: 1a15 6041 5d47 57c1 186f b23f 50c9 f3be
000001f0: 5d51 9cbe 93c3 77be 2984 debe 7364 43c1
00000200: 8528 9fbe dd4c 8d3e 181f c93f 540a 9c40
00000210: d999 a640 aad5 e9be 0b54 4e41 49e4 75be
00000220: 2519 443f b09a 89be 3c36 9c3e f3bc 5241
00000230: 583c cfbe e379 57c1 373d ba3b c27f 93be
00000240: 0b54 87be 6439 e3bd 3e26 c6be e984 5fc1
00000250: 252f dcbe c4ef 7bbd c1ac bd3f 6065 5ac1
00000260: cba3 cdc0 04a1 d7be 24be 56c1 4ec2 b4be
00000270: f52a 223f 9dbc 89be 2e68 babe c794 953f
00000280: 92dd 58c1 6d78 62c1 6cd3 1740 97fd e2be
00000290: 7272 bfbe 56e0 89be f85b cebe 4caa 52c1
000002a0: 0cb9 e8be de37 9abe dc43 0640 50d4 3dc1
000002b0: ab61 0c3c cba7 a1be 209e 55c1 6e4d 89be
000002c0: 44be 2d40 32f0 9abe 6f00 f8be 0bf3 06c1
000002d0: 1c68 56c1 1ef5 5fc1 a956 c4be a573 aabe
000002e0: 2913 00bf bb4d d6be c44f 92be 9459 58c1
000002f0: 3d55 ffbe 0591 69be 247c 38c0 85b6 57c1
00000300: 47ba 2ec1 b859 9cbe 49cc 5ac1 86f6 78be
00000310: 2b0c 89bf b0b8 80be 5051 49be eefa 0041
00000320: a864 59c1 5e22 5bc1 af97 d23f 1a0b 8dbe
00000330: e157 8abe 8ee7 68be 111f a8be b834 de40
00000340: 6cdf 79be d438 acbe 65c8 7140 1b63 3341
00000350: 4000 10c1 72a2 96be efce 56c1 e611 c4be
00000360: 9cb1 d33f 1a50 8abe 1b35 f9be 9fd6 62c1
00000370: 2c18 54c1 5b28 5fc1 cc89 ee3e 1fe4 8abe
00000380: 2f34 88be 3416 ddbe 82a6 68be 9a3a 58c1
00000390: 2ca2 babe e653 4bbe 5410 3ec0 116a 3b41
000003a0: 0f92 08c1 cfb6 98be ec75 5cc1 c53f 54be
000003b0: 25fb 1c3c fd0d dcbe 37c9 c7be b58d 1fc0
000003c0: a22c 59c1 7d54 62c1 c0f4 b13f cee7 e6be
000003d0: 4a1a ffbe b392 53be d4ca 83be e9df f5c0
000003e0: 40de ecbe de7b 99be e9c0 06c0 2b4e 5ac1
000003f0: e06f 6140 834a d7be 69cb 35c1 07cb 78be

onnx::MatMul_19 f4 [20, 10]
-0.24688059 13.399658 -12.7987795 -12.553765 -0.3800869 -0.45584786 -0.33716142 -12.525802
13.07616 -12.887437 -0.2756597 14.042667 14.186309 -13.493135 -0.34049618 -0.25890964
-0.21372283 13.188497 13.366319 -13.149644 -0.4820449 -4.7992415 1.2999856 -0.662702
-0.57347244 -0.3650461 -0.31036738 -13.165815 -12.57854 1.4550077 -0.1807089 0.4354419
0.52180004 0.4851914 -0.21382445 -0.17694771 -0.13478652 0.46640658 -0.33475745 0.36432725
-0.4387509 0.52909464 0.3012539 0.21039629 -0.20712456 -0.35505876 -0.17228895 0.5650886
-0.38708317 0.2515029 -0.44423997 -0.16243666 0.0831044 0.21819109 -0.3228331 -0.12533797
0.06686029 0.11198017 -0.34114748 0.3524276 -0.1670893 0.38108367 0.0034414676 0.33962435
-0.15066934 -0.22416143 -0.5163381 0.34227532 -0.50786495 0.21988931 -0.29266143 13.54601
-1.1956798 -12.877359 -0.5184472 -0.40508267 -0.56357324 -13.280374 -13.232097 -13.831884
-0.3260781 0.28700718 -0.4383848 -0.36472708 -0.24770561 -0.3741688 -0.4526387 0.213543
-0.5634267 -0.26123735 -0.23819381 0.38176313 -0.25018463 0.31816468 -0.12909631 -0.4466074
-0.16625673 0.32028306 0.28553164 0.35638896 -0.26932767 -11.172419 -0.09782781 -0.6331654
-0.20776306 -0.5407415 -0.16960397 -13.467683 -9.447558 0.8874964 -0.25536424 -13.864818
-11.515313 7.7182336 -0.3484079 -0.35265392 -0.364807 -13.842577 -5.201339 -13.425267
-0.3884535 -13.9620075 -0.6554197 -0.017712988 -0.5508184 -0.17595054 -0.316271 -13.887499
7.432121 -1.3005611 -0.3469475 0.3453784 0.19845665 -0.040038154 -0.5314669 -0.19333935
-0.14193441 0.15825312 -0.32326153 -0.3539887 -0.581339 13.534354 -11.273084 13.655943
-0.4444657 -0.5764203 -0.26429856 13.4220495 13.526526 -13.93185 -0.2839037 0.14131612
0.40291178 0.29541707 -0.3685347 -0.42680043 -0.24253544 0.5676138 -0.45386755 0.24624649
-0.40341944 -14.168118 -0.5084951 1.0296052 -0.23410138 -0.44750607 -0.5069778 -13.93096
2.198569 -2.2087402 -0.43277407 0.16814312 0.48277664 0.57579994 -0.31372443 -0.17679
-0.40861717 0.24382061 -0.17730989 0.33362985 -0.13615963 0.072850704 -0.23114349 -0.24778324
-0.51807207 -0.45804456 -0.17949323 0.15988073 0.42314765 -0.54291296 -0.250365 -11.633253
-2.6420019 -7.0039687 -0.29044977 -0.13089065 -0.5202373 -4.0332875 -14.442095 2.1239824
00000000: 44ce 7cbe 0065 5641 cdc7 4cc1 39dc 48c1
00000010: c09a c2be e464 e9be 6ca0 acbe af69 48c1
00000020: f437 5141 f132 4ec1 4523 8dbe c4ae 6041
00000030: 1ffb 6241 e2e3 57c1 8455 aebe ce8f 84be
00000040: 28da 5abe 1504 5341 71dc 5541 f164 52c1
00000050: 97ce f6be 6393 99c0 ee65 a63f d7a6 29bf
00000060: 17cf 12bf 53e7 babe 79e8 9ebe 2ea7 52c1
00000070: b341 49c1 b13d ba3f c10b 39be 3ef2 de3e
00000080: b094 053f 026b f83e ccf4 5abe c831 35be
00000090: 7a05 0abe d8cc ee3e 5465 abbe 1a89 ba3e
000000a0: f5a3 e0be bf72 073f f43d 9a3e 2072 573e
000000b0: 7618 54be 43ca b5be 846c 30be a6a9 103f
000000c0: c42f c6be fdc4 803e 6c73 e3be cc55 26be
000000d0: a432 aa3d 7c6d 5f3e 614a a5be 9958 00be
000000e0: 0cee 883d dc55 e53d e2aa aebe 6471 b43e
000000f0: 7519 2bbe 661d c33e 3f8a 613b 3ee3 ad3e
00000100: 1049 1abe 938a 65be bc2e 04bf b63e af3e
00000110: 7003 02bf aa2a 613e b8d7 95be 75bc 5841
00000120: 090c 99bf aa09 4ec1 f5b8 04bf ff66 cfbe
00000130: 5646 10bf 697c 54c1 abb6 53c1 664f 5dc1
00000140: b5f3 a6be 9bf2 923e f973 e0be 82bd babe
00000150: 8aa6 7dbe 0e93 bfbe 42c0 e7be 04ab 5a3e
00000160: bb3c 10bf e7c0 85be 14e9 73be 7576 c33e
00000170: 3318 80be 7be6 a23e d331 04be baa9 e4be
00000180: 343f 2abe 24fc a33e 3431 923e 9d78 b63e
00000190: 51e5 89be 3ac2 32c1 f259 c8bd 2117 22bf
000001a0: d7bf 54be 096e 0abf aaac 2dbe a17b 57c1
000001b0: 3329 17c1 f732 633f 1abf 82be 4bd6 5dc1
000001c0: b93e 38c1 c5fb f640 8562 b2be 0e8f b4be
000001d0: fcc7 babe 327b 5dc1 5e71 a6c0 e5cd 56c1
000001e0: 61e3 c6be 6264 5fc1 96c9 27bf d41a 91bc
000001f0: 6f02 0dbf 612c 34be 46ee a1be 3233 5ec1
00000200: efd3 ed40 c978 a6bf 1aa3 b1be 70d5 b03e
00000210: 3838 4b3e 0cff 23bd 370e 08bf c0fa 45be
00000220: 4157 11be 1b0d 223e 8982 a5be 023e b5be
00000230: a2d2 14bf b78c 5841 8d5e 34c1 be7e 5a41
00000240: 0291 e3be 4890 13bf 2452 87be b7c0 5641
00000250: a76c 5841 dce8 5ec1 d35b 91be 2cb5 103e
00000260: 744a ce3e e840 973e 95b0 bcbe 9685 dabe
00000270: 365b 78be 234f 113f 5461 e8be 0a28 7c3e
00000280: fe8c cebe 9cb0 62c1 bc2c 02bf 1aca 833f
00000290: 46b8 6fbe 841f e5be 4cc9 01bf 36e5 5ec1
000002a0: 5bb5 0c40 005c 0dc0 9094 ddbe b62d 2c3e
000002b0: 802e f73e a067 133f 7da0 a0be 7008 35be
000002c0: 4536 d1be 1cac 793e b990 35be 88d1 aa3e
000002d0: 6e6d 0bbe c032 953d e1b0 6cbe e4ba 7dbe
000002e0: 5fa0 04bf d184 eabe 13cd 37be c6b7 233e
000002f0: cfa6 d83e 58fc 0abf d72f 80be ce21 3ac1
00000300: 8f16 29c0 8320 e0c0 d5b5 94be 3308 06be
00000310: 462e 05bf b110 81c0 d212 67c1 54ef 0740

onnx::MatMul_20 f4 [10, 8]
0.33129928 -0.25239503 -0.20517862 0.10968265 0.13201502 -0.33083716 -0.19350204 -0.27352905
10.813692 7.2140026 10.933953 11.816967 -14.238909 -11.056799 -10.250212 -14.086404
1.8042477 1.2582699 2.251723 2.327634 -13.345528 1.6921074 1.9718822 -14.602601
2.9037445 2.5242543 2.949625 -13.556717 3.8936324 2.8412344 -0.91131127 -14.204007
0.08663009 -0.07674868 -0.6849135 -0.2557481 -0.55828315 -0.1523542 -0.57998574 -0.34085056
0.11220026 -0.40362698 -0.27695018 0.27618772 0.2903497 -0.23437774 -0.06403022 -0.053470656
0.083192125 -0.5379637 -0.4049598 -0.43970814 -0.15737984 -0.24925406 -0.09904174 -0.28493366
-13.499215 13.741839 13.707 -13.329947 13.450613 -13.604143 -13.569781 -14.261263
9.211381 9.087718 -13.008275 -14.571646 9.333622 8.584107 9.781243 -14.358782
6.539792 6.4147134 1.4901565 6.832912 -8.868511 -11.666846 0.7063084 -14.0710335
00000000: 0fa0 a93e ec39 81be 581a 52be 4ca1 e03d
00000010: f22e 073e 7d63 a9be 6625 46be 000c 8cbe
00000020: e204 2d41 1cd9 e640 79f1 2e41 4c12 3d41
00000030: 92d2 63c1 a6e8 30c1 de00 24c1 e961 61c1
00000040: 97f1 e63f fd0e a13f 3b1c 1040 f5f7 1440
00000050: 4887 55c1 fa96 d83f a366 fc3f 41a4 69c1
00000060: f3d6 3940 628d 2140 a8c6 3c40 50e8 58c1
00000070: 4631 7940 c9d6 3540 b24b 69bf 9d43 63c1
00000080: 1e6b b13d 692e 9dbd 7e56 2fbf 6af1 82be
00000090: a5eb 0ebf bd02 1cbe f279 14bf f783 aebe
000000a0: 40c9 e53d 32a8 cebe 6acc 8dbe 7a68 8d3e
000000b0: b7a8 943e b800 70be 4722 83bd 0c04 5bbd
000000c0: a260 aa3d fdb7 09bf e456 cfbe 6d21 e1be
000000d0: 2e28 21be 753c 7fbe 65d6 cabd d3e2 91be
000000e0: c9fc 57c1 93de 5b41 df4f 5b41 7747 55c1
000000f0: b635 5741 92aa 59c1 d31d 59c1 222e 64c1
00000100: d161 1341 4b67 1141 e521 50c1 7625 69c1
00000110: 8456 1541 8158 0941 f97f 1c41 92bd 65c1
00000120: fa45 d140 5545 cd40 73bd be3f 37a7 da40
00000130: 6ce5 0dc1 67ab 3ac1 a1d0 343f f422 61c1
